mini_gpt/mini_gpt.pth (torch, 933532 bytes, 29 tensors)

embedding.token_emb.weight f4 [1000, 64]
000000 27 a5 f6 3f 54 5f be 3f 67 95 66 3f dd c0 06 c0
       1.926915 1.4872842 0.9007172 -2.1055214
000010 d5 ac 2d 3f 92 05 9e bf 87 67 30 bd ba 65 cd bf
       0.67841846 -1.234545 -0.04306748 -1.604667
000020 ff 8b 40 bf 5a 09 d3 3f f6 f2 c8 be 63 a9 b3 bf
       -0.7521362 1.6487229 -0.39247864 -1.4036068
000030 6d 56 3a bf cc 36 0f bf a1 d2 44 bf 9f 2f 43 3f
       -0.72788125 -0.5594299 -0.76883894 0.7624454
000040 71 37 d2 3f 7b 6d 23 be e2 aa fe be d7 11 e1 3e
       1.6423169 -0.15959732 -0.49739748 0.43958923
000050 e2 14 42 bf 50 06 8a 3f 43 01 4d 3f 93 1e d7 3f
       -0.75813115 1.0783176 0.8008005 1.6806206
000060 59 ba a3 3f 2f f1 a5 3f 88 47 1c 3f b0 d8 aa 3f
       1.2791244 1.2964228 0.6104665 1.3347378
000070 ed 2e 6d be 00 0c 2b 3d 79 ce 80 be b0 1f 5c 3f
       -0.23162432 0.04175949 -0.25157526 0.8598585
000080 01 3d b1 bf 55 09 5f bf 0a ba 64 be 7d d2 db 3f
       -1.3846742 -0.87123615 -0.22336593 1.7173611
000090 34 44 a3 3e 8d 5a d9 be 60 87 9c 3e b2 4b 46 bf
       0.31887972 -0.42451897 0.30572033 -0.7745925
0000a0 87 5e c7 bf 02 e2 7e 3f a5 39 61 bf 81 e4 19 bf
       -1.5575722 0.9956361 -0.87978584 -0.60114294
0000b0 65 17 a3 bf b6 db 07 40 1f 09 9e bf d9 cf f9 be
       -1.2741514 2.122785 -1.2346534 -0.48791388
0000c0 4e f0 69 bf af 7b 28 bf fb ca 9f 3d 67 9b 06 3f
       -0.913823 -0.65813726 0.07802387 0.52580875
0000d0 0d da f9 be c9 7e 98 3f ce 62 50 bf 07 6a 3c bf
       -0.48799172 1.1913692 -0.81400764 -0.73599285
0000e0 a0 9d b3 bf bf 78 13 3d 5f 00 82 bd 19 f5 2c 3f
       -1.4032478 0.036003824 -0.06347727 0.6756149
0000f0 fb 4e c8 bd a8 1b ec 3f ec 9e 97 bf 25 18 b1 3f
       -0.09780689 1.844594 -1.1845374 1.3835493
000100 10 8f db 3f f6 ac 71 3f 78 2a 15 40 b0 d8 e3 3e
       1.7153034 0.9440454 2.330717 0.44501257
000110 32 5c d5 3e fd 44 73 be 9e 68 8b bf af d4 c3 3f
       0.41671902 -0.23756786 -1.0891302 1.5299281
000120 5b fc 55 be 0a 7e 1d 3f 1e 05 8e bd 6c ca 16 3f
       -0.20897047 0.61520445 -0.0693457 0.5890262
000130 55 5b 2b 3f b1 36 17 bf b2 58 10 c0 f6 06 25 bf
       0.66936237 -0.5906783 -2.2554135 -0.64463747
000140 31 67 92 3d 7b 0f d5 be 21 59 ab bf cd 4b 31 bf
       0.071485884 -0.41613373 -1.3386575 -0.6925629
000150 b8 ab 1b 3f 47 55 cf 3e b5 48 8d 3f 89 2b b7 3d
       0.60808897 0.4049475 1.1037813 0.089438505
000160 87 43 3d 3f ff bf 0d bf 9b 7f 80 bf 75 fc 2a 3f
       0.73931164 -0.5537109 -1.0038942 0.6679147
000170 a2 8e d8 bf c7 67 64 bf 07 a3 9a 3f df 7c ef 3e
       -1.6918528 -0.8922085 1.2081002 0.46774957
000180 72 d6 23 c0 70 5f 09 3f e7 db 33 3f f5 68 0b bd
       -2.5599637 0.5366125 0.7025742 -0.03403564
000190 0a 77 0a 3f 26 22 22 3f 6f c5 91 3f 7e da ea be
       0.5408789 0.63333356 1.1388377 -0.4586982
0001a0 d2 a1 3d bd 31 c0 32 3f 66 4a 01 3f f9 25 60 3e
       -0.046296902 0.6982451 0.5050415 0.21889485
0001b0 e5 b3 aa 3e 47 e6 a1 3f c6 8f a5 bd f5 35 69 be
       0.33340374 1.26484 -0.08084063 -0.22774489
0001c0 4b db bf bf 3e 7e d1 bd 22 5d 24 bf 00 f2 ba 3e
       -1.4988798 -0.10229157 -0.6420461 0.36512756
0001d0 36 de 33 3f 3d fe 33 3d ae 07 dd be f7 d5 05 3f
       0.7026094 0.043943632 -0.43169922 0.5227961
0001e0 a6 e5 8e bd bf 05 32 3e fe b7 df 3c be 21 3c 3f
       -0.06977396 0.17385004 0.027309414 0.73488986
0001f0 17 ba 96 3f 8d a5 9e 3e 69 6c 1a 3f 15 3e ea 3e
       1.177554 0.3098568 0.6032167 0.4575049
000200 67 3c 02 40 48 eb 8b 3f 64 dc cd bf 20 6e a2 bf
       2.0349367 1.0931177 -1.6082883 -1.2689857
000210 b7 ab 22 be 33 13 dc 3f 10 03 2a 3f b1 b4 26 3f
       -0.15885817 1.7193359 0.66410923 0.65119463
000220 51 1e 9e 3f 90 ef 52 bc 32 ac f2 bf 15 91 57 3f
       1.2353002 -0.012874499 -1.89588 0.8420575
000230 e1 6b bf be b1 36 84 3f 98 8c 22 bf a7 b6 f7 3e
       -0.37386993 1.032919 -0.6349578 0.4838154
000240 e0 71 8a bf 51 a2 4f 3f 09 4c d1 3f d8 93 ab 3f
       -1.0816002 0.8110705 1.6351329 1.3404493
000250 db e5 26 3e 4f 13 70 be db 2d 45 bf d1 fd 9b 3d
       0.1629862 -0.23444866 -0.77023095 0.07616771
000260 07 be 93 3e c3 2b 7f 3f af 59 ad be 17 35 c7 3f
       0.28855917 0.9967615 -0.33857486 1.5563077
000270 07 cc 1a c0 6d 11 02 bf fc 89 9d bf 59 5d 6e 3f
       -2.4187028 -0.5080784 -1.2307734 0.9311119
000280 71 11 e2 bf fa 5b 5e 3e 51 ec b2 bd da b6 b9 be
       -1.7661573 0.21714774 -0.0873648 -0.36272317
000290 9b 0e 88 3e 3a dc 25 bf cc d9 cd 3d cb 69 79 bf
       0.26573643 -0.64789164 0.10051307 -0.9742705
0002a0 7d f9 dd bf fe 6e ae 3f 39 cd 93 3f e3 7b c3 bc
       -1.7341763 1.3627622 1.1547004 -0.023862785
0002b0 75 45 c4 bf 00 b6 54 3f d8 e0 3d 3f 4f f4 00 40
       -1.5333697 0.8309021 0.7417121 2.0149114
0002c0 87 8b a8 3c ec 4d 9b 3e b7 c1 50 bf 8c f3 2d be
       0.020574344 0.30332887 -0.81545585 -0.16987437
0002d0 0c be 32 bf 82 a7 cb bf e1 1f 85 bf 25 3d 11 bf
       -0.6982124 -1.5910494 -1.0400354 -0.56733924
0002e0 a9 de 07 bf 7a 64 c5 bf 2b ee f4 bf a3 d6 35 3c
       -0.5307413 -1.5421288 -1.9135183 0.011098537
0002f0 c6 42 83 3f db 1f 15 bf 19 b1 42 3f 60 16 1c 3f
       1.0254753 -0.5825173 0.7605148 0.6097164
000300 07 0c f3 3f db 81 61 bf 9f 4f 6c 3f 9e 88 b9 be
       1.8988045 -0.8808877 0.9230899 -0.36237043
000310 cb 8c b3 bf bb 04 a3 3e 16 7f 28 3f bc e4 b7 3f
       -1.4027342 0.31839547 0.6581892 1.4366679
000320 74 52 13 3f 20 13 07 40 dc 9d 23 bf 8d 6b 5d bf
       0.5754769 2.1105423 -0.6391275 -0.86492234
000330 68 51 44 3e 3b d3 95 3f 0a 05 ad 3f f9 a7 ef 3e
       0.19171679 1.1705087 1.3517163 0.4680784
000340 1a 4b 31 bf bf 4a 8e bf 98 d2 1e bf b8 96 1d bf
       -0.6925522 -1.1116561 -0.6204009 -0.61558104
000350 cb fa 15 3d 0e 4c e8 3e 59 de 81 be 5d 29 0c c0
       0.036616128 0.45370525 -0.2536495 -2.1900246
000360 94 cd c7 be 3f d1 8c 3f f2 8a e5 bf f6 2b bc 3f
       -0.3902403 1.1001357 -1.7933028 1.4700916
000370 d9 5f ae 3e de c4 09 bf 52 5b 85 3f 3a 7c d9 3f
       0.340575 -0.5381602 1.0418494 1.6991036
000380 34 05 bf 3d c4 1f d6 3f 7f 80 1e 3e ff 99 84 bf
       0.09327164 1.6728444 0.15478705 -1.0359496
000390 87 e7 05 bf 42 ca b9 3c f5 45 ae 3e 10 e8 ee 3f
       -0.5230641 0.022679452 0.34037748 1.866457
0003a0 2f 66 22 3d 19 1e 82 bf 19 a0 04 c0 be 90 83 bf
       0.03964823 -1.0165435 -2.0722716 -1.0278547
0003b0 c3 d6 11 3e 9f d5 73 bc 07 74 3b 3e 5d b1 09 3f
       0.14242081 -0.014882474 0.1830598 0.5378626
0003c0 5a cd 7b bf 0b 17 89 3e f9 ae 27 bf a7 5a 13 3f
       -0.98360217 0.26775393 -0.6550136 0.575602
0003d0 b3 d6 84 bf 72 6e aa 3d ce 9a 55 be ce d0 c1 3f
       -1.0378021 0.08321847 -0.20859835 1.5141847
0003e0 a3 91 a0 3f 46 a1 3e bf 4e 2a 5b 3f 53 a0 0e 3f
       1.2544445 -0.74464834 0.85611427 0.55713385
0003f0 23 fd f4 3e 18 73 25 3f 10 3e ea 3e e9 05 00 3e
       0.47849378 0.64628744 0.45750475 0.12502255

embedding.pos_enc.pe f4 [32, 64]
000000 00 00 00 00 00 00 80 3f 00 00 00 00 00 00 80 3f
       0.0 1.0 0.0 1.0
000010 00 00 00 00 00 00 80 3f 00 00 00 00 00 00 80 3f
       0.0 1.0 0.0 1.0
000020 00 00 00 00 00 00 80 3f 00 00 00 00 00 00 80 3f
       0.0 1.0 0.0 1.0
000030 00 00 00 00 00 00 80 3f 00 00 00 00 00 00 80 3f
       0.0 1.0 0.0 1.0
000040 00 00 00 00 00 00 80 3f 00 00 00 00 00 00 80 3f
       0.0 1.0 0.0 1.0
000050 00 00 00 00 00 00 80 3f 00 00 00 00 00 00 80 3f
       0.0 1.0 0.0 1.0
000060 00 00 00 00 00 00 80 3f 00 00 00 00 00 00 80 3f
       0.0 1.0 0.0 1.0
000070 00 00 00 00 00 00 80 3f 00 00 00 00 00 00 80 3f
       0.0 1.0 0.0 1.0
000080 00 00 00 00 00 00 80 3f 00 00 00 00 00 00 80 3f
       0.0 1.0 0.0 1.0
000090 00 00 00 00 00 00 80 3f 00 00 00 00 00 00 80 3f
       0.0 1.0 0.0 1.0
0000a0 00 00 00 00 00 00 80 3f 00 00 00 00 00 00 80 3f
       0.0 1.0 0.0 1.0
0000b0 00 00 00 00 00 00 80 3f 00 00 00 00 00 00 80 3f
       0.0 1.0 0.0 1.0
0000c0 00 00 00 00 00 00 80 3f 00 00 00 00 00 00 80 3f
       0.0 1.0 0.0 1.0
0000d0 00 00 00 00 00 00 80 3f 00 00 00 00 00 00 80 3f
       0.0 1.0 0.0 1.0
0000e0 00 00 00 00 00 00 80 3f 00 00 00 00 00 00 80 3f
       0.0 1.0 0.0 1.0
0000f0 00 00 00 00 00 00 80 3f 00 00 00 00 00 00 80 3f
       0.0 1.0 0.0 1.0
000100 a4 6a 57 3f 40 51 0a 3f ce 7a 2e 3f b0 54 3b 3f
       0.84147096 0.5403023 0.68156135 0.731761
000110 ba 7d 08 3f 0e 94 58 3f f0 90 d1 3e c6 92 69 3f
       0.53316844 0.84600914 0.4093089 0.91239583
000120 3e 39 9f 3e 6a 4e 73 3f 27 8f 70 3e f0 d5 78 3f
       0.3109836 0.95041525 0.23492108 0.9720144
000130 3a 23 35 3e 83 f6 7b 3f f3 25 08 3e 28 ba 7d 3f
       0.17689219 0.9842302 0.13295726 0.99112177
000140 76 75 cc 3d 98 b8 7e 3f 37 6f 99 3d d1 47 7f 3f
       0.099833414 0.9950042 0.07491916 0.9971896
000150 b0 36 66 3d 68 98 7f 3f fb ac 2c 3d bd c5 7f 3f
       0.056204498 0.9984193 0.042157155 0.999111
000160 5c 81 01 3d 3c df 7f 3f a6 3e c2 3c 93 ed 7f 3f
       0.031617507 0.99950004 0.023711514 0.99971884
000170 42 ab 91 3c a3 f5 7f 3f 49 7a 5a 3c 2c fa 7f 3f
       0.017781857 0.99984187 0.013334819 0.99991107
000180 57 d6 23 3c b9 fc 7f 3f 19 b9 f5 3b 28 fe 7f 3f
       0.009999833 0.99995 0.007498872 0.99997187
000190 5c 44 b8 3b f7 fe 7f 3f 5d 2e 8a 3b 6b ff 7f 3f
       0.0056233834 0.9999842 0.0042169527 0.9999911
0001a0 20 3e 4f 3b ac ff 7f 3f 03 69 1b 3b d1 ff 7f 3f
       0.0031622723 0.999995 0.0023713715 0.9999972
0001b0 20 15 e9 3a e5 ff 7f 3f 8a c9 ae 3a f1 ff 7f 3f
       0.0017782785 0.9999984 0.001333521 0.9999991
0001c0 6d 12 83 3a f8 ff 7f 3f 8b 94 44 3a fb ff 7f 3f
       0.0009999998 0.9999995 0.0007498941 0.9999997
0001d0 16 6a 13 3a fd ff 7f 3f 25 17 dd 39 ff ff 7f 3f
       0.0005623413 0.9999998 0.0004216965 0.99999994
0001e0 5f cb a5 39 ff ff 7f 3f 14 a8 78 39 00 00 80 3f
       0.00031622776 0.99999994 0.00023713737 1.0
0001f0 53 77 3a 39 00 00 80 3f 71 d4 0b 39 00 00 80 3f
       0.00017782794 1.0 0.00013335214 1.0
000200 b7 c7 68 3f 33 11 d5 be d9 5a 7f 3f 51 4d 91 3d
       0.9092974 -0.41614684 0.99748 0.07094825
000210 0a f2 66 3f b2 e8 dc 3e 12 35 3f 3f 03 39 2a 3f
       0.9021307 0.43146282 0.74690354 0.6649324
000220 1b 54 17 3f ec 7b 4e 3f b6 d3 e9 3e 69 be 63 3f
       0.5911271 0.8065784 0.45669335 0.8896242
000230 f6 47 b2 3e a5 fa 6f 3f 82 f0 86 3e f5 f2 76 3f
       0.34820527 0.9374183 0.26355368 0.96464473
000240 f9 6f 4b 3e a5 e5 7a 3f d3 00 19 3e 4f 20 7d 3f
       0.19866933 0.9800666 0.1494172 0.98877424
000250 88 d9 e5 3d f3 61 7e 3f ae 85 ac 3d 0e 17 7f 3f
       0.112231314 0.9936821 0.08423935 0.99644554
000260 c8 70 81 3d f9 7c 7f 3f ab 30 42 3d 4e b6 7f 3f
       0.063203394 0.9980007 0.047409695 0.9988755
000270 5c a5 11 3d 8e d6 7f 3f 50 75 da 3c b1 e8 7f 3f
       0.03555809 0.9993676 0.026667267 0.99964434
000280 3e d4 a3 3c e5 f2 7f 3f 54 b7 75 3c a1 f8 7f 3f
       0.019998666 0.9998 0.014997322 0.9998875
000290 9d 43 38 3c db fb 7f 3f 0c 2e 0a 3c ab fd 7f 3f
       0.011246589 0.99993676 0.00843383 0.9999644
0002a0 dd 3d cf 3b b0 fe 7f 3f e6 68 9b 3b 43 ff 7f 3f
       0.0063245133 0.99998 0.0047427295 0.99998873
0002b0 08 15 69 3b 96 ff 7f 3f 80 c9 2e 3b c4 ff 7f 3f
       0.0035565514 0.9999937 0.0026670396 0.9999964
0002c0 69 12 03 3b de ff 7f 3f 88 94 c4 3a ed ff 7f 3f
       0.0019999987 0.999998 0.0014997879 0.99999887
0002d0 14 6a 93 3a f5 ff 7f 3f 24 17 5d 3a fa ff 7f 3f
       0.0011246824 0.99999934 0.0008433929 0.99999964
0002e0 5f cb 25 3a fd ff 7f 3f 13 a8 f8 39 fe ff 7f 3f
       0.0006324555 0.9999998 0.0004742747 0.9999999
0002f0 53 77 ba 39 ff ff 7f 3f 71 d4 8b 39 ff ff 7f 3f
       0.00035565588 0.99999994 0.00026670427 0.99999994
000300 c3 81 10 3e 26 70 7d bf de 3c 47 3f cd bf 20 bf
       0.14112 -0.9899925 0.7782725 -0.62792665
000310 d7 45 7e 3f a8 7f ed bd 63 21 74 3f 63 18 9a 3e
       0.9932532 -0.11596614 0.95363444 0.3009673
000320 c2 09 50 3f 57 2f 15 3f b8 24 27 3f a2 e7 41 3f
       0.8126489 0.5827536 0.65290403 0.7574407
000330 6d 2f 02 3f 29 6d 5c 3f a7 68 c7 3e 37 c9 6b 3f
       0.50853616 0.86104065 0.3894703 0.92103904
000340 6d 4e 97 3e ef 90 74 3f e2 6d 64 3e 92 8c 79 3f
       0.29552022 0.9553365 0.22307542 0.9748012
000350 d8 ee 2b 3e 9e 5d 7c 3f 2c 33 01 3e 43 f4 7d 3f
       0.1679033 0.9858035 0.12617177 0.9920084
000360 c1 ff c1 3d 4f d9 7e 3f 08 93 91 3d 3b 5a 7f 3f
       0.09472609 0.99550337 0.07108122 0.99747056
000370 4d 69 5a 3d c3 a2 7f 3f c5 d1 23 3d 90 cb 7f 3f
       0.05332308 0.9985773 0.039994974 0.99919987
000380 20 b9 f5 3c 83 e2 7f 3f 49 47 b8 3c 6b ef 7f 3f
       0.029995501 0.99955004 0.022494929 0.999747
000390 c7 31 8a 3c ad f6 7f 3f 49 44 4f 3c c1 fa 7f 3f
       0.016869439 0.9998577 0.012650558 0.99991995
0003a0 11 6e 1b 3c 0d fd 7f 3f 12 1d e9 3b 57 fe 7f 3f
       0.009486691 0.999955 0.007114061 0.99997467
0003b0 a8 cf ae 3b 11 ff 7f 3f 13 17 83 3b 7a ff 7f 3f
       0.005334813 0.99998575 0.0040005534 0.999992
0003c0 93 9b 44 3b b5 ff 7f 3f 61 6f 13 3b d6 ff 7f 3f
       0.0029999956 0.9999955 0.0022496807 0.9999975
0003d0 1b 1f dd 3a e8 ff 7f 3f 59 d1 a5 3a f3 ff 7f 3f
       0.0016870232 0.99999857 0.0012650891 0.9999992
0003e0 0d b1 78 3a f8 ff 7f 3f 0e 7e 3a 3a fc ff 7f 3f
       0.0009486832 0.9999995 0.00071141205 0.99999976
0003f0 7e d9 0b 3a fe ff 7f 3f aa be d1 39 ff ff 7f 3f
       0.0005334838 0.9999999 0.00040005642 0.99999994

transformer_blocks.0.attn.in_proj_weight f4 [192, 64]
000000 f8 54 21 3e cb b7 c1 3d af dc 90 3d f5 ed 55 bd
       0.1575507 0.09458884 0.07073342 -0.052228887
000010 62 05 21 bc bb dc 8e 3c 21 ab 04 3c 6d a9 dc 3c
       -0.0098279435 0.017439237 0.008097441 0.026936257
000020 aa 3a 81 bd 44 67 1d 3d 63 93 6c bc 95 03 57 3e
       -0.063100174 0.03842856 -0.014439437 0.2099746
000030 1f db 8c 3d 8a 0e 6a 3d d4 fa 56 3d c8 17 2f be
       0.068777315 0.05714277 0.052485302 -0.17098916
000040 d8 0b 96 be 8d 60 7c 3e 3c 6e 86 3c 01 32 ec 3d
       -0.2930591 0.24646206 0.016409986 0.11532975
000050 0a 08 fa 3c 2b 89 ad 3c d7 bf 56 be 0a b2 a8 bc
       0.030521411 0.02118357 -0.20971619 -0.020592708
000060 03 65 31 bd d7 d4 92 bd 0a 45 83 bc 35 0a 15 be
       -0.043309223 -0.07169502 -0.016024131 -0.14554675
000070 ee 7f a9 be 89 73 7f be 80 24 b9 be 13 b6 41 3e
       -0.33105415 -0.24946417 -0.3616066 0.18917112
000080 ed 8f ed ba c5 9e 03 bc aa 83 ae bd 9f 02 ba bd
       -0.0018124558 -0.008033459 -0.08521207 -0.09082531
000090 26 b6 fa 3d c6 61 2c 3e 6d 79 33 bc 0e d2 5f 3e
       0.12241773 0.16834173 -0.010954243 0.21857473
0000a0 72 a9 ba 3b f2 db e1 3d 71 e6 0f 3e 3f 39 b2 bd
       0.005696469 0.11028279 0.1405275 -0.08702325
0000b0 e1 d5 00 be d8 22 83 be 38 ed 2d 3d 0e 02 08 be
       -0.12581588 -0.2561252 0.042462558 -0.13282034
0000c0 f2 5f b9 3d 59 81 62 bd 54 63 e3 bd 9f 60 5d 3d
       0.09051503 -0.055299137 -0.1110293 0.054047223
0000d0 86 2c e0 3e 63 16 1e 3e d3 f0 52 3d 5d d6 0a be
       0.4378397 0.15438227 0.0514992 -0.13558336
0000e0 e2 1a 1c 3e f8 57 46 bd bf 97 eb 3a ae e0 84 be
       0.1524463 -0.048423737 0.0017974301 -0.25952667
0000f0 6f fa f0 3d 96 76 62 3c 7b 63 82 3d b5 b5 58 3d
       0.117665164 0.013822218 0.06366631 0.052907664
000100 7a db 8b bd 8a 66 f3 bc a5 c7 19 be 85 dc 83 3e
       -0.06828971 -0.02971198 -0.15017565 0.2575418
000110 52 33 db bd 19 ed 02 3e 2b ed a1 bc 53 5d c5 3d
       -0.10703148 0.12785758 -0.01976641 0.09636941
000120 88 20 3a bc df 17 1d be 07 43 b9 3d 67 48 24 3e
       -0.011360295 -0.15341137 0.090459876 0.16043244
000130 2e dd 13 3e da 0f 00 bd 61 e0 05 3d 51 e7 de bd
       0.14439842 -0.031265117 0.032684688 -0.10883964
000140 49 88 0f be 27 2c 35 3e 21 5b 2a 3e 9f 73 97 bc
       -0.14016832 0.17692624 0.16636325 -0.01848775
000150 ed 17 c0 3d ed 6c e3 3d 2a 08 e1 bc f9 88 c2 bd
       0.093795635 0.1110476 -0.027469713 -0.09498782
000160 78 14 6f 3d ca 14 9c bd 57 46 07 3e bd 7d 20 3e
       0.05836913 -0.07621153 0.13210426 0.15672965
000170 1b 00 4a bd c1 ec e8 3d 68 81 a7 3e 50 01 ea bc
       -0.049316507 0.11373282 0.32715917 -0.028565079
000180 df f6 45 be ca 5d 54 3e cf 29 47 be d5 d4 47 bc
       -0.19332455 0.20738903 -0.19449542 -0.012196739
000190 5a f4 bd 3d ca ce eb bc 51 59 02 be 13 b5 05 3d
       0.09275122 -0.028785128 -0.12729384 0.03264339
0001a0 02 51 40 3e 95 ac 3d be b7 0d 4b 3e e2 8d 83 bd
       0.18780902 -0.18522866 0.1982945 -0.064235464
0001b0 65 e8 6b 3d 34 5b 95 bc 00 a2 81 bd 09 54 31 3c
       0.057594676 -0.018231966 -0.06329727 0.010823258
0001c0 a1 e4 ec 3d 08 26 9e 3d e5 e9 a6 3c a6 0b a5 3b
       0.11567045 0.07722098 0.020375201 0.005036789
0001d0 1c ee f5 ba 34 a5 4f be bd f1 63 be 05 49 53 be
       -0.0018762979 -0.20277864 -0.22260185 -0.20633323
0001e0 f1 4e 01 be 89 5a c9 bd 7e 7b 2f 3d b7 88 c5 3c
       -0.1262777 -0.09831721 0.04284238 0.024113042
0001f0 86 a8 01 3e ef 77 94 bd f0 a0 2b 3e 14 d3 c3 bd
       0.12661943 -0.07249438 0.16760612 -0.09561744
000200 94 98 47 3e ae 32 97 3d d9 86 9e bd 39 8a c1 3b
       0.19491798 0.07382713 -0.07740564 0.00590637
000210 f0 a3 78 3c ca de 76 3e fc 8f 44 3e 69 46 ef 3d
       0.0151758045 0.24108425 0.1919555 0.116833515
000220 7c c4 10 3e 80 8d c6 3d 66 4c 43 3d 4b 07 1c 3e
       0.14137453 0.09694958 0.04768028 0.15237157
000230 3b 03 c8 3b 04 99 44 be ac 46 ce bd b2 ef f3 3d
       0.0061039007 -0.19198996 -0.10072073 0.11910953
000240 d7 98 c9 bd c7 4c e8 3d 19 23 f5 bd 56 e9 36 3e
       -0.09843605 0.11342769 -0.11969585 0.17862448
000250 d9 80 f0 bd 4c 31 b3 3b 0d d5 b7 3d 03 39 ea bc
       -0.11743326 0.005468523 0.08976183 -0.028591638
000260 36 cb ba bd f4 b0 1b be a8 b5 0d be b3 49 89 3d
       -0.09120791 -0.15204221 -0.13838828 0.0670351
000270 fa a5 88 be 80 c7 4a 3d 83 04 87 3d 7c a2 24 3d
       -0.2668913 0.049506664 0.065926574 0.04019402
000280 06 b3 77 bd de 57 d9 bc 52 e3 95 bd a9 77 88 bd
       -0.060473464 -0.026531156 -0.073187485 -0.06663448
000290 18 0b 83 3d 25 2a 03 be d4 2d a4 3d 27 b5 94 be
       0.063986 -0.12809046 0.080165535 -0.29044458
0002a0 01 19 71 3d ed 1d 8f be 58 ad da bd 61 65 07 be
       0.058861736 -0.2795252 -0.10677594 -0.13222267
0002b0 9b 3a 39 3e 19 90 f2 bd 01 d6 4b 3d 7b 14 6d bd
       0.18088762 -0.11843891 0.049764637 -0.05788086
0002c0 11 e6 29 bd 31 13 bd bc 20 db 06 3e 33 24 31 be
       -0.041479174 -0.02308044 0.13169527 -0.17298965
0002d0 03 a7 88 be 1e a2 3b 3e b0 2a dc bd 10 7f bc bd
       -0.2668992 0.18323562 -0.107503295 -0.09203923
0002e0 49 48 96 be 45 24 33 3e 0f 72 7e 3d 6f b7 22 3e
       -0.29352024 0.17494304 0.062120494 0.15890287
0002f0 45 db 12 3c 3d f9 8b 3c a6 0d 71 bc 4f a2 30 3c
       0.008963411 0.01708662 -0.014712727 0.010780885
000300 24 4e 80 bd 8e ba 56 bd cb c0 1c be d6 96 2b bd
       -0.06264904 -0.052424006 -0.1530792 -0.041891895
000310 b1 7c d0 bd f3 3b b1 bd f0 03 19 be 08 1a 3a 3e
       -0.10180033 -0.086540125 -0.14942908 0.18173993
000320 d2 ea 16 3e 64 a1 fb 3d a7 b1 10 bd 45 7c 27 be
       0.14738014 0.12286642 -0.035325672 -0.16355999
000330 51 0d 8c 3d 41 90 66 be ba a3 d0 bd 7d 72 0f bd
       0.068384774 -0.22515966 -0.10187478 -0.035021294
000340 b5 32 92 be 06 45 0b be 67 2e 0f 3e 0e 61 3e bd
       -0.2855431 -0.13600549 0.13982545 -0.046479277
000350 b0 eb 07 3e c5 18 09 3d 78 e7 d8 bd d3 65 ee bd
       0.13273501 0.033470888 -0.10591024 -0.11640515
000360 5d ff 4e bd 8a d8 6e 3c 0c 68 01 be 81 f2 b1 3d
       -0.050536502 0.014577994 -0.12637347 0.08688832
000370 01 b5 83 be ac 9d 71 bd 8c 75 ab bd c2 84 f5 3d
       -0.25724033 -0.05898826 -0.0837203 0.11988212
000380 fd e4 fc 3d b0 25 f7 3c d0 cc 2d bd 40 26 e2 3d
       0.123483635 0.030169338 -0.042431653 0.11042452
000390 f4 df 1b 3e 90 6e 91 3e 8f 94 4d 3d a4 dc 2b 3e
       0.1522215 0.28404665 0.050190505 0.16783386
0003a0 eb 72 33 bd a3 ed be 3d 83 6a 51 3e 04 bd 99 bc
       -0.043810766 0.09322669 0.20450787 -0.018766887
0003b0 58 bc 9e be 0c 62 ba 3d 33 5e d4 bd a2 86 99 3e
       -0.3100307 0.09100732 -0.103695296 0.2998553
0003c0 dd b6 94 3e 66 d4 20 be 4e 13 85 3d ee f3 f3 3c
       0.29045764 -0.15706024 0.06497823 0.0297794
0003d0 41 06 80 be 21 6d cc 3d 76 4a 48 3e c9 95 7b 3d
       -0.2500477 0.09981752 0.19559655 0.061422143
0003e0 8c 5e bd bb c3 17 60 3d fb 7a 7c bd 59 30 be 3d
       -0.005779093 0.05471016 -0.06164072 0.09286565
0003f0 75 d6 89 bd 3f a8 1d 3d c6 59 b1 3c 3e 81 0e 3d
       -0.067303576 0.03849053 0.021649253 0.034791224

transformer_blocks.0.attn.in_proj_bias f4 [192]
000000 ac 40 c6 bd 9b d0 0e bd 55 bf 48 bd 90 0d 64 3d
       -0.09680304 -0.03486691 -0.049010593 0.055676997
000010 4c 60 68 bd 78 35 f3 bc 7e a6 41 bd 7d 09 06 3d
       -0.05673246 -0.029688582 -0.04727792 0.032723892
000020 ff 93 51 bc b2 9b cd 3d 69 c2 9c 3c bf ec 92 3d
       -0.012791633 0.10039462 0.01913567 0.07174062
000030 e4 eb 2c bd 72 45 8d bd a9 56 bb bc 32 46 9b bc
       -0.04221715 -0.06898011 -0.022868471 -0.01895437
000040 d4 83 a5 bb 56 0e e2 bc 02 30 4c bc 91 e2 bf 3a
       -0.0050511155 -0.027594727 -0.012462618 0.0014639666
000050 e0 b0 45 3d 93 81 4b 3d bb d4 98 3d 4a 3a a7 bc
       0.048264384 0.04968412 0.0746245 -0.020413537
000060 91 d6 d3 bd bc 1e 5a 3d 92 69 a0 bd 27 84 00 bd
       -0.1034366 0.053251967 -0.07832636 -0.03137603
000070 80 f2 81 bc 24 2c 32 3d 1a 6a db 3d 34 31 b7 3c
       -0.015862703 0.043499127 0.10713597 0.022362329
000080 68 b0 43 3d bb 2e c6 bc ed 76 d6 3c f8 e3 c4 3c
       0.047775656 -0.024192205 0.026179755 0.024034485
000090 90 23 9c 3d 31 f7 73 bd 9c b1 09 3e 2b 09 9e bd
       0.076239705 -0.059561912 0.13446659 -0.077165924
0000a0 a9 78 b6 bc 6e 01 45 bd f1 71 b8 bd 3a 2e f2 3b
       -0.022274332 -0.048097067 -0.090061076 0.0073907645
0000b0 46 79 55 bd a5 8e 20 3e 2b 82 68 bc 2c 8c c0 bc
       -0.05211761 0.15679415 -0.014191191 -0.02350434
0000c0 80 ee a6 bd 83 09 01 3d 06 76 8f 3d f5 13 a1 3b
       -0.08150959 0.03150321 0.07004933 0.004915709
0000d0 4f dc 76 bd 5c 09 95 bd 7e d9 8e 3d 69 7a 34 3d
       -0.060268696 -0.07277176 0.06975077 0.044062052
0000e0 0b 4c b9 3d 57 aa 92 3d 57 ff 9a bc 9a 36 16 bd
       0.09047707 0.07161396 -0.018920584 -0.036673166
0000f0 dc ee 88 3d 3c 72 92 3d 03 27 5e 3c bd 81 61 bc
       0.06686184 0.07150695 0.013559106 -0.013763842
000100 6a e8 3b 3a eb 85 05 b8 46 99 c4 3a a7 91 5e 3a
       0.0007168116 -3.1834392e-05 0.0014999292 0.0008490332
000110 4e bc 6a b9 50 75 85 ba 79 21 ca b7 ed f0 4e ba
       -0.00022386128 -0.0010182057 -2.4095863e-05 -0.0007894177
000120 5f eb 89 ba f1 e6 c7 b9 70 36 b2 3a 92 8b 5d ba
       -0.0010522417 -0.00038128303 0.0013596546 -0.00084512786
000130 cc 53 72 39 1d 6e 8d 3a ec 98 89 ba 0b dc d8 3a
       0.00023110135 0.0010790263 -0.0010497845 0.001654507
000140 71 25 14 3a 34 61 be 3a d5 c0 17 3a cb c5 73 bb
       0.0005651331 0.0014524818 0.0005788927 -0.0037196751
000150 b0 63 5f ba 24 db 64 b9 0a 41 c7 3a 61 06 e9 b8
       -0.00085216295 -0.0002182541 0.0015201878 -0.00011111494
000160 20 33 07 3a ae e6 0b 3b e8 e2 13 3b 18 4e f4 38
       0.00051574595 0.0021347213 0.0022565667 0.00011649373
000170 5c 5b 45 36 2f fb d6 ba 18 4b 46 ba 40 8e b5 37
       2.9408466e-06 -0.0016401763 -0.00075642904 2.1643122e-05
000180 0b 52 70 ba 0c 2a 1e ba 18 69 c4 39 53 37 53 ba
       -0.0009167499 -0.0006033487 0.00037462334 -0.0008057255
000190 c1 f5 76 3a cb 31 91 ba b8 49 55 3b a7 5b b8 ba
       0.00094207755 -0.0011077462 0.003254516 -0.00140654
0001a0 6d 04 0a 3a 5d e8 66 ba ba 6c 45 3a 32 3a c2 39
       0.0005264942 -0.00088084285 0.0007531155 0.00037045922
0001b0 14 36 23 ba 8d b0 ce b9 53 08 45 bb e3 91 9e 3a
       -0.0006226015 -0.00039422922 -0.0030064776 0.0012097921
0001c0 70 d5 0d ba 71 75 76 3a 5e 51 03 b9 af 8d d7 ba
       -0.0005410528 0.00094016554 -0.00012523445 -0.0016445423
0001d0 f2 2c de 3a 59 13 45 bb f9 40 91 3a 34 e3 54 39
       0.0016950651 -0.0030071347 0.0011081985 0.00020302535
0001e0 34 2e ea 3a 2f 5c 71 ba 92 04 65 b9 7b 44 ba 3a
       0.0017866553 -0.0009207157 -0.00021840844 0.0014211083
0001f0 a0 b8 37 3a 03 54 20 3a 43 a8 60 3a 4e 0e c7 b9
       0.0007008407 0.00061160343 0.0008569995 -0.00037966896
000200 e2 2a bc 3c 02 cd 4e 3b 17 bf 9c 3c 05 d3 86 bb
       0.022969667 0.00315553 0.019134087 -0.004114511
000210 e1 e3 8d bc 77 f3 6b 3c 68 ef ad bc 84 09 15 3d
       -0.017320575 0.014401308 -0.021232322 0.036386028
000220 2e 63 9d bc 8d 48 f6 bc 98 88 66 3c 34 43 36 bd
       -0.019212332 -0.030063892 0.014070652 -0.044497684
000230 04 90 5c bb 48 c0 97 3b f2 99 de 3c 6c e1 ab bc
       -0.0033655176 0.004631076 0.027173016 -0.020981513
000240 3f 7b d1 bb e4 72 3e 3d 7b 37 57 bc 93 41 e2 bc
       -0.006392866 0.046496287 -0.013135786 -0.027619159
000250 5c 79 7d 3b 13 3a f3 bc 56 fc 2b bc 89 05 0c 3d
       0.0038677072 -0.029690778 -0.010497173 0.034184966
000260 eb eb 26 3d 31 0b 51 bd 5e 83 51 3c 47 f0 07 bd
       0.040752333 -0.051036064 0.012787668 -0.03318813
000270 c6 dd da bc 48 60 e6 bb 41 d9 b3 3a b2 cb 99 bc
       -0.026717078 -0.0070305206 0.0013721363 -0.018773887
000280 7d ae f7 bb b9 c0 5a 3c 66 b7 4c bc c3 aa 25 bc
       -0.0075586424 0.013351613 -0.0124948975 -0.010111514
000290 c9 3b f8 bc de ae 15 38 da 52 0e bc 3c 1d 6b 3c
       -0.030301945 3.5687226e-05 -0.008686746 0.014350232
0002a0 69 84 0d bd 54 1f 13 bd d9 9a 11 3d 39 a8 91 3c
       -0.034550104 -0.03591855 0.035548065 0.01778041
0002b0 1e 7e a3 bc 02 8e 7b bb 98 6f 22 3b 8e e7 69 3b
       -0.019957598 -0.0038384204 0.0024785753 0.0035690996
0002c0 d1 a7 ba 3c c2 0c 77 bc b4 5c 9d 3c 08 9b 5e bc
       0.0227851 -0.015078725 0.019209243 -0.013586767
0002d0 23 f3 f8 bb 37 d8 8a 3c 2e 76 e7 3c 56 71 5f bc
       -0.0075973435 0.016948802 0.028254595 -0.013637861
0002e0 53 15 3b 3a ec f0 a5 3b 25 a1 b5 3c 8e 03 f5 bc
       0.00071366614 0.0050641205 0.022171566 -0.029908922
0002f0 8b 11 b9 3c 8d c8 58 ba 12 7e b8 3c 05 94 46 bc
       0.022591373 -0.00082696305 0.022521053 -0.012120252

transformer_blocks.0.attn.out_proj.weight f4 [64, 64]
000000 d7 81 88 3e 4e ad 5d be 90 31 ef bd 99 5f 5f bd
       0.2666156 -0.21648142 -0.11679375 -0.05453453
000010 3e 64 74 3d 16 62 18 3e f4 ae ba bd 9b 49 cc bd
       0.05966591 0.14881167 -0.09115401 -0.09974977
000020 1e 81 7b 3d 07 8d 05 3e 9f 10 75 bd e9 70 e0 bd
       0.061402433 0.13042079 -0.059830304 -0.10959036
000030 55 ed 4d be d6 39 b6 3d 38 6f 18 3c 69 d9 71 bd
       -0.20110066 0.0889775 0.00930386 -0.05904523
000040 5a 84 57 3e b6 c9 d8 3c 12 f6 36 3d a9 65 85 bd
       0.21046582 0.02646337 0.044668265 -0.06513531
000050 bf 4e 58 3d c0 be 16 3e c2 04 45 bc 65 a5 aa bc
       0.052809473 0.14721203 -0.01202506 -0.02083082
000060 28 df a0 bd 8a c9 9c 3d 28 0a 0f 3e 0f 5f 3d 3e
       -0.07855064 0.07655628 0.13968718 0.18493293
000070 16 9b a6 3d 21 0e 82 be dd 91 ea 3d af 7d 82 bd
       0.08135049 -0.25401405 0.114536025 -0.063716285
000080 fa 5a 0b 3c 07 a4 57 bd e0 c0 ec 3d a5 a2 02 bb
       0.008505577 -0.052646663 0.115602255 -0.001993337
000090 13 2c 69 3e 0a ec dd 3c 96 fb c0 bd e6 8d 14 3e
       0.22770719 0.027090091 -0.09422986 0.14507255
0000a0 a7 c6 32 be 5e 27 89 3c b8 bf 4f be 2b d8 f2 bd
       -0.17458592 0.016742405 -0.20287979 -0.11857637
0000b0 4e f4 e5 3d 3c 33 e5 bd 64 50 e8 bd 04 96 90 3d
       0.11228238 -0.11191413 -0.11343458 0.07059863
0000c0 11 cf 53 bd 36 87 b4 3d aa 5a 06 bd 5a 6e 65 3e
       -0.051711146 0.08814852 -0.032801308 0.22405377
0000d0 e9 2b ef bd 54 d6 d3 bd 8c 37 a3 3d 8d 94 6c 3e
       -0.11678297 -0.10343614 0.07969579 0.23103543
0000e0 f8 38 cf bd 98 c7 0b bd d6 47 8d bc df 82 06 be
       -0.10118288 -0.034125894 -0.017246168 -0.13135861
0000f0 c2 f9 87 be 92 68 92 bd 5b 48 c8 3c de 2d fb bc
       -0.26557738 -0.071488515 0.024448564 -0.03066152
000100 7d 08 25 3d dc d8 96 3d ce 19 b0 3d 96 8c f2 bd
       0.0402913 0.073655814 0.08598672 -0.11843221
000110 2d 6b 82 3d 68 86 ca bd cd 13 78 bd 98 e4 c8 3d
       0.063680984 -0.09888917 -0.06056576 0.09809226
000120 37 8c 12 be 8b eb 7f bd 07 cf 1e be 41 a8 ae 3d
       -0.143113 -0.06248049 -0.15508662 0.08528186
000130 10 79 64 3e ba c5 67 bd c0 c2 fc 3c 05 f2 2b be
       0.22311807 -0.05658505 0.030854583 -0.16791542
000140 af 60 98 be 6e 58 a9 3a 33 e5 bd 3d a1 e8 69 be
       -0.29761264 0.0012920031 0.09272232 -0.22842647
000150 2a b4 8a bd 8d 75 f4 3d 4b 2f ad bc c3 3e a0 bc
       -0.06772645 0.119364835 -0.021140715 -0.019561177
000160 50 69 e4 bd b7 78 4e 3d 04 d8 37 be bd 06 ba 3c
       -0.11152899 0.05040809 -0.17953497 0.022708291
000170 c1 92 90 bb 95 b3 40 bd ef f9 b1 3d e0 1b 7c 3c
       -0.0044120257 -0.047046263 0.08690249 0.015387505
000180 fc ce cf 3c d4 a1 a7 bd b6 b8 99 3d 68 50 8f bd
       0.025367253 -0.08185163 0.07505934 -0.06997758
000190 97 f8 93 bd af 8b 35 bd 60 ff f1 3d 93 40 d1 bc
       -0.07225149 -0.044322666 0.11816287 -0.025543487
0001a0 be e3 cc 3d fb e2 cd 3d 08 43 56 3e 5c e5 73 3d
       0.10004376 0.10053059 0.20924008 0.059544906
0001b0 10 ef e2 bb 1e a0 89 3d f8 e6 24 3d c6 ac d9 3c
       -0.006925471 0.06719993 0.04025933 0.026571643
0001c0 4a 56 89 3d ee db db 3d 1e 16 c6 bc 13 3f bd 3d
       0.067059115 0.10735308 -0.024180468 0.09240546
0001d0 19 e0 28 be b1 84 9c 3d 04 fd ff bd a2 e7 10 3e
       -0.16491736 0.076424964 -0.12499431 0.14150861
0001e0 4c 35 e8 bd 75 70 81 3b c3 8a f7 3d ee 22 39 bd
       -0.113382906 0.0039501735 0.120870136 -0.045199327
0001f0 3b 7b 02 be bb b5 e0 3d 02 64 04 3d d0 6f 12 be
       -0.12742321 0.10972162 0.032321937 -0.14300466
000200 63 1a 17 bc ba b4 12 be ff 8a e0 3d 66 e0 4a be
       -0.0092226 -0.14326754 0.109640114 -0.19812164
000210 93 ac ac 3d a5 fa 83 3d 6c e9 53 be 8a 21 85 bd
       0.084313534 0.06444291 -0.20694512 -0.06500538
000220 36 e9 bc 3c 8d a6 3e be b6 d1 43 3e 13 ab 11 3d
       0.023060422 -0.18618222 0.19122967 0.03556354
000230 51 1f 94 bd f6 9e 51 bd c9 18 9b bc 92 02 4a 3e
       -0.07232536 -0.051176988 -0.018932717 0.19727543
000240 b8 62 24 be 4a ba fb bd 83 27 13 be 77 b6 dd bd
       -0.16053283 -0.12291391 -0.14370541 -0.10825818
000250 ce e7 12 bd 6a ea 18 3e 07 73 73 3e 2d dc 8b 3d
       -0.035865597 0.14933172 0.23774348 0.068291046
000260 34 6d 82 3d 6e d5 ed bd b5 6f 91 3d b7 af 9a bd
       0.06368485 -0.11612974 0.071013846 -0.07553046
000270 b9 4d b7 3d fe c3 25 bd 29 d0 16 3e 19 6d 74 bd
       0.08950371 -0.040470116 0.14727844 -0.059674356
000280 27 8d 8d bd fe 93 11 bd 88 0a 4a 3e 30 88 56 3e
       -0.06911688 -0.035541527 0.1973058 0.20950389
000290 50 fc 2f 3e 60 8a 11 3d 83 34 32 bd 22 b3 29 3e
       0.17186093 0.035532355 -0.04350711 0.1657224
0002a0 21 e8 ad bc 51 a3 d6 bd f9 b8 34 be 55 0a 68 be
       -0.021228852 -0.10480369 -0.17648686 -0.22660191
0002b0 5e 1f 27 3e 61 16 19 3e 24 88 ed bd 4a 39 1e 3d
       0.1632056 0.14949943 -0.115982324 0.038628854
0002c0 41 4c 0b 3e 09 c1 1f 3e 6f 26 1a 3e 14 ac 60 bc
       0.13603307 0.15600981 0.15053724 -0.013712902
0002d0 6a 31 82 bd db 88 7e bd f3 3c 9e 3c 22 f7 b6 3d
       -0.06357081 -0.062142234 0.019316172 0.089338556
0002e0 ff 90 46 3e d4 57 14 be 16 2b 43 3d ed 5d 5d 3e
       0.19391249 -0.14486629 0.04764851 0.21617861
0002f0 1a c9 5e be c3 f5 3b bc e2 34 4b be d6 0d 08 3d
       -0.21756402 -0.011472168 -0.19844392 0.03321632
000300 0f a2 21 3e 05 a9 28 be cf b3 0b 3c 3f 96 2b be
       0.15784477 -0.16470726 0.008526756 -0.16756533
000310 1c b9 54 3b 4a 6e a9 3d f3 58 aa 3d 06 00 a6 bd
       0.0032458967 0.08272989 0.08317747 -0.08105473
000320 64 e0 e2 3c cb 13 86 bd 0b 55 66 bc 01 18 e6 3d
       0.027694888 -0.06546744 -0.014058362 0.11235047
000330 2a 16 d9 bb ef 3c 0e 3e 56 95 32 bd 1a 45 09 3d
       -0.0066249566 0.13890432 -0.04359945 0.033513166
000340 86 13 26 3d a1 17 33 3e 47 4c d1 bd d9 62 89 3e
       0.040545963 0.17489482 -0.10219627 0.26833227
000350 e2 b1 f4 bd 66 f1 21 bd a4 56 2d 3e ff 84 0b be
       -0.11947991 -0.039536856 0.16927582 -0.13624953
000360 b4 4e 15 bd 1c 63 69 3c f2 f9 da 3b bd 7c 5b bc
       -0.03645201 0.014244821 0.006682628 -0.013396439
000370 7b db c9 bd d6 d2 5e 3d 10 33 9d bc 7a 13 55 3e
       -0.09856316 0.054400288 -0.019189388 0.20808211
000380 49 9e 2a 3e 4e 5e e3 bd e1 03 a7 3d 1e 00 80 3d
       0.16661943 -0.111019716 0.08155037 0.06250022
000390 46 32 75 be d3 6b 67 be 83 75 aa 3d 42 83 7d bd
       -0.23944959 -0.22599725 0.08323195 -0.061892755
0003a0 ef 38 c5 3d 15 c9 5c 3d 1b ac 4f bd 52 76 80 3c
       0.0963 0.053902704 -0.050701242 0.01568142
0003b0 3b 1e bf 3c 30 8d 6d bd d1 91 14 bc 20 90 70 bd
       0.023329845 -0.057995975 -0.009067968 -0.0587312
0003c0 d0 b8 28 bd ba 13 85 3d d0 41 dd 3d f5 67 04 3d
       -0.041191876 0.06497903 0.10803568 0.032325704
0003d0 72 51 91 bc 66 4b 2f 3e 61 3f b0 3c 87 82 3a be
       -0.017739031 0.17118606 0.021514596 -0.18213855
0003e0 93 37 fc 3d 63 a2 3b bd 81 1a ad bd 47 0e ae bd
       0.123152874 -0.04580916 -0.08452321 -0.08498817
0003f0 da 4d 08 3e 01 95 cd 3d e2 0c 2c 3e 5a 45 7e 3d
       0.13310948 0.10038186 0.1680179 0.062077858

transformer_blocks.0.attn.out_proj.bias f4 [64]
000000 01 d4 4f 3d 77 82 25 3d 79 86 b9 3c 94 36 dc bc
       0.050739292 0.040407624 0.02264713 -0.026881494
000010 bd 09 9f 3c d1 b4 5f 3c 4e 3f 1d 3c 17 68 9a 3c
       0.019413823 0.01365395 0.009597613 0.018848462
000020 32 81 d1 3c 59 8f 87 3b 6a 13 3f bc e8 36 58 3c
       0.0255743 0.0041369614 -0.0116623435 0.013196684
000030 20 d4 82 3c 95 1b a8 bb 35 2c c1 3c f9 16 21 bb
       0.01597029 -0.005130241 0.02358065 -0.0024580343
000040 aa 49 ec 3c de 53 48 bc b6 9b 17 3d 9e 8c f8 3b
       0.02884372 -0.012227027 0.037013732 0.0075851223
000050 30 38 b4 bc 5b e3 2a 3c 87 0e e7 3c a4 18 94 bc
       -0.021999449 0.010430182 0.02820517 -0.018078156
000060 cc 24 4e bc 11 82 c3 bc 18 86 e7 3c 7b 01 b4 bc
       -0.012582015 -0.023865731 0.028262183 -0.021973362
000070 8a 40 a9 3c 64 b8 35 bd cf 97 e3 3c 9a da 39 bd
       0.020660657 -0.0443653 0.027782349 -0.04537449
000080 f1 f9 92 3c 8b 32 f6 bb 30 47 4b 3d 5e b3 b8 bc
       0.017941447 -0.0075133494 0.049628437 -0.022546466
000090 3d 2a b3 3b b1 5a d1 bc 9b 2c 09 3d 6c d2 73 bc
       0.0054676817 -0.02555594 0.033489805 -0.014881711
0000a0 8f 99 32 3c 7c 9e f7 bc 9f 82 70 3d 0e 87 3b bc
       0.010900869 -0.030226938 0.05871832 -0.011445774
0000b0 7f c0 40 3b 68 f0 95 bd 6d 94 f7 3c 6c fc 21 bd
       0.0029411612 -0.073212445 0.030222142 -0.03954737
0000c0 ad cc 00 3d 71 29 44 bd 2f 19 24 3d 75 55 fb bc
       0.031445194 -0.047891084 0.04006308 -0.030680398
0000d0 f1 c3 e6 3c d3 f2 73 bd 78 cd 86 3d 86 fd de bc
       0.028169604 -0.059557747 0.06582159 -0.027220499
0000e0 b1 d4 b1 3c d5 7c 4d bc af 76 02 ba ed 60 98 bd
       0.021707864 -0.012541969 -0.00049767917 -0.07440362
0000f0 41 92 80 3c 78 dc 75 bd 15 d4 86 bc 01 92 0f bd
       0.01569474 -0.06002471 -0.01645855 -0.03505135

transformer_blocks.0.norm1.weight f4 [64]
000000 b9 41 35 3f 68 17 34 3f 6b 13 25 3f 1f 25 2c 3f
       0.7080341 0.70348215 0.64482754 0.6724414
000010 2b 99 3d 3f 87 7f 42 3f 4e cb 5b 3f f0 c4 4e 3f
       0.7406184 0.7597584 0.85857093 0.8076925
000020 67 98 69 3f c7 66 4e 3f 0a a5 65 3f ea 25 6f 3f
       0.9124817 0.80625576 0.89704955 0.9341723
000030 ee 1e 83 3f 8e 08 6b 3f 0d 2c 81 3f d4 91 87 3f
       1.0243814 0.9180993 1.0091568 1.0591378
000040 24 15 88 3f 30 56 7b 3f 59 45 82 3f ea 95 7b 3f
       1.0631452 0.98178387 1.0177413 0.98275626
000050 23 99 8c 3f 7c e3 87 3f f0 bf 83 3f b0 1c 8d 3f
       1.0984234 1.0616298 1.029295 1.102438
000060 0d 6f 83 3f 29 13 81 3f 0d 4a 87 3f d5 29 83 3f
       1.0268265 1.0083972 1.0569474 1.0247141
000070 21 f5 82 3f 3f 82 85 3f fb f9 7c 3f c7 da 87 3f
       1.0231057 1.0430373 0.9881894 1.061364
000080 de 56 87 3f bc 3b 80 3f fe b4 8b 3f ff b6 8b 3f
       1.0573385 1.001823 1.091461 1.0915221
000090 ca 41 88 3f e8 50 8e 3f 07 07 8a 3f ae a5 7f 3f
       1.0645077 1.1118441 1.0783395 0.9986218
0000a0 8a e9 82 3f c9 33 85 3f 90 2f 81 3f 04 11 8d 3f
       1.022752 1.0406429 1.009264 1.1020818
0000b0 1e 33 80 3f a6 8c 8d 3f f7 a0 86 3f 79 2b 82 3f
       1.00156 1.1058547 1.0517873 1.0169517
0000c0 7f c9 84 3f d5 ec 8a 3f 0e c2 83 3f 37 fc 85 3f
       1.0373992 1.0853525 1.0293596 1.0467595
0000d0 e9 be 8c 3f 76 1a 87 3f 5c 17 88 3f 8c 15 85 3f
       1.0995761 1.055495 1.0632129 1.03972
0000e0 9e 27 85 3f d9 63 89 3f 24 b3 83 3f dc d0 86 3f
       1.0402715 1.0733596 1.0289044 1.0532489
0000f0 f7 3c 8a 3f 4c 70 84 3f a6 98 8d 3f 65 a9 86 3f
       1.0799855 1.034677 1.106221 1.0520445

transformer_blocks.0.norm1.bias f4 [64]
000000 dc 0c 6d 3d dc a7 1d 3d 6f 1d 5a 3c 66 9f f2 bc
       0.05787359 0.03849016 0.013312682 -0.029617023
000010 44 33 d3 3c 0c bc f4 3b 64 51 5c 3c 2c d4 c7 3b
       0.025781281 0.007468706 0.013447139 0.006098291
000020 31 85 30 3d ab c0 85 bc ad ad 53 bc 38 fd 1c 3c
       0.04309577 -0.016327223 -0.0129198255 0.009581856
000030 8d 54 57 3c 6c 60 08 bb 45 a0 ce 3c 16 14 96 bc
       0.013142717 -0.0020809425 0.025222907 -0.018320125
000040 5f 4e fa 3c c3 f4 c5 bc 5a 54 59 3c 9f 1e 89 3b
       0.030554948 -0.024164563 0.01326474 0.0041845585
000050 ac fe 0d bc 57 fd 8a 3c 12 ab cf 3c d6 27 b8 bc
       -0.008666676 0.016966505 0.025350127 -0.022479933
000060 bc ef 8f bc b3 d3 a4 bc c1 4b 82 3b 60 b4 a6 bc
       -0.017570369 -0.020120477 0.0039763157 -0.020349681
000070 f0 96 81 3c 1f 22 15 bd 1e 6c ed 3c ac 33 28 bd
       0.015819043 -0.036409494 0.028982218 -0.041064903
000080 62 1c 1e 3c 10 b4 ae bb a5 c2 66 3d 7f 3a 14 bd
       0.009650322 -0.0053315237 0.05633797 -0.0361886
000090 c3 94 84 ba 81 d8 e7 bc 8f 13 14 3d 4e e9 70 bc
       -0.0010115135 -0.02830148 0.036151465 -0.014704062
0000a0 f9 0a ba ba 1e c7 f9 bc 5f a6 6c 3d 35 1b 06 bd
       -0.0014193944 -0.030490454 0.05777585 -0.03274079
0000b0 6f a3 88 3c a8 d9 8a bd d8 9c f6 3c 59 b5 f0 bc
       0.016679494 -0.06779796 0.030104086 -0.029383348
0000c0 0b 23 f4 3c 7a e3 37 bd 5c f4 e4 3c f1 5c 0c bd
       0.029801866 -0.044894673 0.02794855 -0.034268323
0000d0 0d 06 de 3c ce 57 87 bd b4 ac 76 3d 9e 64 24 bd
       0.027102495 -0.06608544 0.060223296 -0.04013502
0000e0 8d c7 d2 3c d0 ea f5 b9 b3 62 36 3c fc 84 8d bd
       0.025729919 -0.0004690499 0.01113193 -0.069101304
0000f0 e0 9c 30 3c 7a 76 5c bd 56 ef f1 3a e4 8f e0 bc
       0.010779589 -0.053823926 0.0018458168 -0.027412362

transformer_blocks.0.mlp.0.weight f4 [256, 64]
000000 ba 43 25 bd 80 ff 15 bc 27 23 35 bc 72 ab 26 be
       -0.040347792 -0.009155154 -0.011055744 -0.16276339
000010 44 a7 23 3c 14 5b 07 be b5 8b 9e bd cc 3d 1f be
       0.00998861 -0.13218337 -0.07741491 -0.15550917
000020 d1 2c 56 bd bf 05 06 3e db 88 11 be 72 49 f6 bd
       -0.052288834 0.1308813 -0.14212362 -0.12025727
000030 3e 92 04 3d ad dc fc 3d ab 07 1e be 71 d9 27 3d
       0.03236603 0.12346778 -0.15432613 0.040978853
000040 3a 3a e5 3d c7 68 eb 3d c5 67 29 3e 8c f2 11 3e
       0.111927465 0.11494594 0.16543491 0.1425268
000050 60 36 eb bd 1c 46 57 bd 88 e9 64 bb 2d e6 f8 bb
       -0.114849806 -0.052557096 -0.0034929235 -0.0075957985
000060 99 65 c1 bd dd 31 8e 3c db 36 0f bd b9 92 24 be
       -0.09443206 0.017357761 -0.034964424 -0.16071595
000070 6d a6 e3 bd 2f 68 9d 3d 89 69 97 3d b8 97 23 3d
       -0.111157276 0.07685887 0.07393176 0.039939612
000080 df f4 0f bd 49 e3 30 be de 64 ef bd 8c 54 88 3d
       -0.035145637 -0.17274202 -0.11689161 0.06656751
000090 00 88 cf bb c7 26 6b 3a 19 d9 1d 3d 6e 67 5e bd
       -0.006333351 0.0008970317 0.03853712 -0.054297857
0000a0 1e 6b 05 be 91 9a ec bd cb 3f 9d bd 53 a3 03 3e
       -0.13029143 -0.11552919 -0.07678183 0.12855272
0000b0 1b 74 72 bd e1 17 28 bd 29 0e 6f 3d e0 ba ab 3d
       -0.059192758 -0.041038398 0.058363114 0.08385253
0000c0 80 77 00 bc 32 d0 32 bd b1 c4 15 bc 1f 4e 34 bc
       -0.007840991 -0.04365558 -0.009141133 -0.011004954
0000d0 24 04 3b 3e 4d b7 13 3e 18 93 f5 bd 81 2a 80 bd
       0.18263298 0.14425392 -0.119909465 -0.06258107
0000e0 c1 ac 79 bb 56 a5 89 3d a8 58 eb 3c 10 40 0f 3c
       -0.0038097354 0.067209885 0.028728798 0.008743301
0000f0 70 d8 9f bc 3d a4 99 bd a2 69 36 3e 6b e9 3d bd
       -0.019512385 -0.07502029 0.17813733 -0.046365183
000100 8f f8 8f 3d d5 6c 40 bb 37 98 ae bd 33 c0 41 bc
       0.07029831 -0.0029361744 -0.085251264 -0.011825609
000110 3f 14 d5 bc fe 79 37 be 90 37 08 be a2 48 da 3d
       -0.02601063 -0.1791763 -0.13302445 0.10658385
000120 5b c0 55 bd 52 1e e6 3d 70 c0 be 3d 15 63 09 3d
       -0.052185398 0.11236252 0.09314048 0.033541758
000130 cd 31 80 bd d2 8e 21 be 27 26 92 3d e2 bf 99 bd
       -0.06259499 -0.15777138 0.07136183 -0.07507302
000140 cf 9d 6e 3a 13 69 29 bd 59 07 70 bc d3 25 cf bd
       0.0009102495 -0.041359972 -0.014650189 -0.10114636
000150 c5 3f 37 bd f5 1d 4d bc 59 6c 99 3c 79 a7 1e 3e
       -0.04473855 -0.012519349 0.018728422 0.15493573
000160 6a c1 a0 3c ea c6 67 3d c2 41 09 be f5 93 32 3d
       0.019623477 0.056586184 -0.13403991 0.043598134
000170 01 2a 4d 3e d0 d6 b3 3d 32 19 ea bd 4d 31 96 3d
       0.20035554 0.087812066 -0.11430587 0.07333622
000180 c4 d9 14 3c 6c e6 df bd a4 af 7d 3d 56 dc 84 3d
       0.0090851225 -0.10932621 0.061935082 0.06487338
000190 3c 14 49 bc c0 88 dc 3d 0f 88 ed bd 3d 52 d5 bc
       -0.012272891 0.107682705 -0.11598217 -0.02604019
0001a0 51 c1 58 bd e9 75 c1 3d 17 51 7e 3c 4f c0 bf 3c
       -0.052918736 0.09446318 0.015522263 0.02340713
0001b0 35 7f 5b 3e 9b 57 97 bc 40 85 a1 bd 5e 26 cc 3d
       0.21435244 -0.01847439 -0.078867435 0.099682555
0001c0 e0 95 4f 3e 6e fa 63 be 7f 82 13 3b 55 eb fc 3d
       0.20272017 -0.222635 0.0022508202 0.123495735
0001d0 a9 d8 6d bd 33 ff 90 bc c7 00 ad 3c ae a2 17 3d
       -0.05806795 -0.017699813 0.021118535 0.037020378
0001e0 0a c9 5f bc f0 d5 93 bd fd c2 c6 3d 1b 31 db bd
       -0.013658771 -0.0721854 0.0970516 -0.107027255
0001f0 77 e0 ec 3a f3 74 3d bd 1c f3 31 3d 54 52 96 bd
       0.0018072267 -0.04625411 0.043444738 -0.073399216
000200 cb 78 af 3d 87 c2 d0 3d 9e fe f0 bd 83 ac d0 3d
       0.08567961 0.10193353 -0.117673144 0.10189154
000210 3d df a5 3d fb db c2 bd 3d 06 6d bd 4d 73 a4 bc
       0.0809922 -0.09514614 -0.057867277 -0.020074511
000220 77 0f a8 bc 94 0d c5 3d 7f f5 51 3e 59 4a 84 be
       -0.020515187 0.096217304 0.20503806 -0.25837973
000230 68 e2 49 bd a9 07 7c 3d 84 e6 95 3d 0f 5d 04 be
       -0.049288183 0.061530743 0.07319358 -0.12926124
000240 4c f8 bd 3d 7a f8 03 3d 45 f6 ff bd 6d 54 c9 bc
       0.092758745 0.032219388 -0.12498144 -0.02457639
000250 73 ab 01 3e f5 50 ea 3d 65 d4 f1 3c bc b3 3d 3d
       0.12663059 0.114412226 0.029520223 0.046313986
000260 29 79 12 bd 20 ba b7 3d 98 a2 46 3d eb 1e 8f bd
       -0.03576008 0.089710474 0.048494905 -0.06988319
000270 7c b6 04 be 74 1c 6b bd 5a 37 4c bd 92 c2 23 3e
       -0.12960237 -0.057400182 -0.049857475 0.15992191
000280 a1 1b 84 bd c9 1f a0 3d 3f 77 0b 3c be 42 a9 3d
       -0.06450582 0.078185625 0.008512317 0.08264683
000290 47 73 01 3e 57 5a c6 bd 98 9f 3a 3d 19 37 28 be
       0.12641631 -0.096852 0.045562357 -0.16427268
0002a0 76 78 f3 3d f7 67 3d 3d 1a b7 9f bd b5 5f 39 bd
       0.118882105 0.046241727 -0.07798596 -0.04525729
0002b0 b7 24 30 bd 4f 32 84 3d ea 67 0a 3e d6 60 86 3c
       -0.043003764 0.06454908 0.13516203 0.016403597
0002c0 f6 bd d9 3d 25 85 37 3e 9a 87 1b 3e 19 8c 77 bd
       0.10631935 0.17921884 0.15188447 -0.060436342
0002d0 4f a9 b8 3d 77 9e 7c 3d 0e cd a5 bd 4e 46 7b bd
       0.09016668 0.06167456 -0.08095752 -0.061346345
0002e0 7f d4 24 3e 6c d9 bd 3d 44 9d 77 bd e1 fc 4d bc
       0.16096686 0.092699856 -0.060452715 -0.012572498
0002f0 69 ef f4 bd 65 26 16 be a4 1e 9a bd a5 6b ae 3c
       -0.11959726 -0.14663084 -0.075253755 0.021291563
000300 0e dd 0e 3d 2c 6d 4d bd f7 26 15 be 46 f7 bc bd
       0.034878783 -0.050152943 -0.14565645 -0.09226851
000310 2c 6e 3b bc d6 26 a0 3c a1 53 bb bd 91 0c a1 bd
       -0.011439841 0.019549768 -0.0914681 -0.07863725
000320 86 75 23 3e 18 cb 33 3e de fd 17 3d 1b 29 f9 bd
       0.159628 0.17557943 0.03710734 -0.12166043
000330 33 95 bb bd 95 75 c7 3d bd c4 13 3d 88 45 f2 bc
       -0.09159317 0.09739224 0.036076296 -0.02957417
000340 c2 a6 eb 3c 23 49 a0 3d 34 c9 31 be d4 c5 8b 3d
       0.02876604 0.0782645 -0.17361909 0.06824842
000350 28 d5 0f be 7e 46 ec 3c c2 b7 ce 3c dd 67 93 bd
       -0.14046156 0.028842207 0.025234107 -0.07197545
000360 6d e8 29 bd a8 4b 5c 3d 2b 99 fe bd 65 bb 56 3b
       -0.041481424 0.05378309 -0.12431558 0.0032765504
000370 e5 6f 97 bc 4d d6 27 be 31 da 50 be 3a 14 8c 3d
       -0.018485973 -0.16390343 -0.20395733 0.068397954
000380 e5 59 e9 3c 76 ce 8f bd 89 47 27 bd c4 a3 60 bd
       0.028485248 -0.07021801 -0.040839706 -0.05484368
000390 bf 90 e0 bc e1 f7 f7 3c e7 c4 d7 3d a9 7b b4 bd
       -0.02741277 0.030269565 0.10535603 -0.08812649
0003a0 6c 3d 33 3e f7 3c 4b 3d 8e 2a e9 3c 7f 22 f3 bd
       0.175039 0.049618687 0.028462674 -0.11871814
0003b0 48 96 7c bd 19 95 24 3e 09 f6 45 bc 80 a8 83 3d
       -0.061666757 0.16072501 -0.012082585 0.06428623
0003c0 c1 b5 22 be 19 71 98 be 80 12 72 3e 6b 2f f6 bd
       -0.15889646 -0.29773787 0.2363987 -0.12020763
0003d0 e8 d2 6b 3e 18 69 0c 3e e4 30 ca 3d 77 d3 89 3d
       0.23029673 0.13711965 0.098726064 0.06729787
0003e0 cb cf fb 3d 9f e6 25 bd a4 86 8f bd ef 7b b5 3d
       0.12295493 -0.04050314 -0.070081025 0.08861529
0003f0 81 d6 bb bd c3 16 c6 3d c0 2e a9 3d 35 53 e1 bd
       -0.09171773 0.0967231 0.0826087 -0.110021986
